pendulum/pendulum_policy.pth (torch, 20828 bytes, 5 tensors)

fc1.weight f4 [64, 3]
0.259637 1.1205947 -0.042092595 -0.30965254 0.13820238 0.09953869 0.36075777 0.46604133
-0.012478267 0.5182521 -0.69476247 0.09371924 0.015397457 0.11811635 0.7750441 0.17994946
0.12901542 -0.009329849 0.15054792 -0.4975544 0.18007983 0.26881295 1.062897 -0.16697581
0.37009594 -0.41045755 -0.4555365 0.055178057 -0.66799664 -0.08397427 -0.48912677 0.662222
0.113407545 0.21724887 0.5988401 0.50791425 -0.03963088 -0.5161155 0.62830776 0.3814635
-0.31000513 -0.54422647 0.030881885 0.80296284 0.4679234 0.09748793 0.40394545 0.62147987
0.84349245 0.37291652 0.16322759 0.68128616 -0.46951494 0.12703378 0.5855583 0.3702898
-0.013468644 -0.36354837 0.49764064 0.2854717 0.46835846 0.16574231 0.46477693 0.073756784
-0.2731125 0.77235717 -0.7670701 -0.71151227 -0.18465883 0.22848207 -0.37571824 -0.38846186
0.44982576 0.059070446 -0.36151847 0.17013238 0.73193455 0.1794396 0.24060173 1.0946472
0.1768471 -0.286569 0.6052722 0.4273055 -0.6878394 -0.20726648 -0.17067477 0.6780966
0.3269463 0.13658422 -0.67080075 0.45521292 0.23306711 0.17651166 0.57059187 -0.3299913
0.09514367 -0.71974033 -0.075534835 0.52780795 -0.61121464 -0.090629704 0.19520813 -0.69277406
0.14366958 0.06389097 0.7861279 0.3297955 -0.6772343 0.19003241 -0.23157662 -0.6057283
0.80238825 0.13839728 -0.9327082 -0.51209706 0.10561932 -0.46793634 -0.5026821 -0.007895284
-0.591828 -0.38918933 -0.48828706 0.11922724 -0.87802297 -0.47891015 0.37819454 -1.0351683
0.18004529 -0.12937456 1.061403 0.14717814 0.40758285 0.22832355 0.29441267 -0.24181004
-0.56297064 0.30246785 0.42970866 -0.22697473 -0.2625972 -0.7785182 -0.29312313 0.48467708
0.73160213 0.20271495 -0.48070753 0.09482576 0.40186402 -0.14909689 0.5160604 0.10408949
0.518049 -0.030564163 0.86715984 -0.18716715 0.32729897 0.26157972 0.31244582 0.64684707
0.59052336 0.24734846 -0.8758806 0.42451707 0.20234892 0.7412905 0.17940785 0.23200217
-0.5261365 0.21074465 -0.40098047 -0.62842506 0.6679312 0.42083472 0.54642886 0.3461711
-0.56580114 -0.13766283 0.5017538 -0.1698586 0.36070213 0.15263136 0.4474477 -0.08817475
-0.7386109 -0.43801948 0.19369176 -0.21520351 -0.49736252 0.38755685 -0.8907647 0.3736554
00000000: 24ef 843e a66f 8f3f 4969 2cbd c78a 9ebe
00000010: ed84 0d3e f1da cb3d 3eb5 b83e f89c ee3e
00000020: a571 4cbc 2bac 043f f4db 31bf dfef bf3d
00000030: 9e45 7c3c fce6 f13d 4a69 463f ac44 383e
00000040: 9e1c 043e 39dc 18bc 3c29 1a3e 73bf febe
00000050: d966 383e daa1 893e 020d 883f b5fb 2abe
00000060: 377d bd3e 7e27 d2be 153c e9be 6302 623d
00000070: d401 2bbf b4fa abbd d36e fabe 6287 293f
00000080: 3742 e83d 7d76 5e3e 964d 193f ab06 023f
00000090: fd53 22bd 2520 04bf c7d8 203f 2f4f c33e
000000a0: feb8 9ebe 6d52 0bbf 02fc fc3c f98e 4d3f
000000b0: a893 ef3e c0a7 c73d f0d1 ce3e 4e19 1f3f
000000c0: 1fef 573f eaee be3e 2225 273e c568 2e3f
000000d0: 4364 f0be 2515 023e 26e7 153f a096 bd3e
000000e0: 96ab 5cbc 0323 babe c1ca fe3e 5929 923e
000000f0: aecc ef3e 5ab8 293e 3ef7 ed3e cc0d 973d
00000100: 67d5 8bbe 33b9 453f b55e 44bf ab25 36bf
00000110: 3417 3dbe 34f7 693e 245e c0be 79e4 c6be
00000120: 904f e63e daf3 713d f318 b9be 2f37 2e3e
00000130: 1060 3b3f 04bf 373e 4d60 763e 661d 8c3f
00000140: 6817 353e 2cb9 92be 1ef3 1a3f c9c7 da3e
00000150: 3e16 30bf aa3d 54be 5ec5 2ebe bd97 2d3f
00000160: 8165 a73e bcdc 0b3e 99b9 2bbf ab11 e93e
00000170: 25a9 6e3e 79bf 343e 4f12 123f 9ff4 a8be
00000180: afda c23d e740 38bf 02b2 9abd 6c1e 073f
00000190: 9078 1cbf 119c b9bd a4e4 473e a459 31bf
000001a0: 1e1e 133e 45d9 823d ae3f 493f f5da a83e
000001b0: 3a5f 2dbf db97 423e 6c22 6dbe 0311 1bbf
000001c0: 5169 4d3f 04b8 0d3e f7c5 6ebf cb18 03bf
000001d0: f14e d83d 5a95 efbe c6af 00bf 395b 01bc
000001e0: 0a82 17bf d343 c7be c300 fabe 692d f43d
000001f0: 1dc6 60bf b633 f5be b7a2 c13e 6580 84bf
00000200: cb5d 383e c47a 04be 0edc 873f deb5 163e
00000210: b3ae d03e a6cd 693e 42bd 963e 0d9d 77be
00000220: d81e 10bf 11dd 9a3e c602 dc3e 106c 68be
00000230: 2473 86be f84c 47bf 3c14 96be 9827 f83e
00000240: 474a 3b3f 8294 4f3e 4c1f f6be 0234 c23d
00000250: 1fc1 cd3e dbac 18be 891c 043f df2c d53d
00000260: dc9e 043f b261 fabc 30fe 5d3f bfa8 3fbe
00000270: bb93 a73e c7ed 853e e6f8 9f3e c597 253f
00000280: 8a2c 173f ea48 7d3e b639 60bf 4d5a d93e
00000290: 8e34 4f3e 37c5 3d3f b1b6 373e fa91 6d3e
000002a0: e2b0 06bf 72cd 573e 504d cdbe 77e0 20bf
000002b0: 8afd 2a3f a677 d73e c3e2 0b3f 573d b13e
000002c0: 58d8 10bf 7cf7 0cbe f072 003f 6aef 2dbe
000002d0: f3ad b83e 654b 1c3e dd17 e53e f794 b4bd
000002e0: 9b15 3dbf 1744 e0be 2257 463e 4f5e 5cbe
000002f0: 4da6 febe da6d c63e 2809 64bf c34f bf3e

fc1.bias f4 [64]
-0.2624215 -0.6080341 -0.36336052 0.29621515 -0.004290842 -0.36903882 0.21531552 -0.25927475
0.23764175 0.37523767 0.28264597 -0.24651986 0.057541575 0.21866052 0.13273731 -0.110754944
0.20965591 0.10645715 -0.047202077 -0.3473177 0.40597084 -0.035025302 0.68702304 -0.19019018
0.31436014 -0.09557208 0.16707188 -0.28657752 0.67417616 0.18943244 -0.5126176 -0.12939268
0.48313093 -0.320905 -0.66371554 -0.07905014 -0.5991154 0.3404683 0.8033612 0.49636483
-0.13860434 0.2555165 -0.3192698 0.44015792 -0.43359998 -0.5988614 -0.41751468 -0.30049893
-0.83847916 -0.47388104 -0.66303605 0.05516289 -0.48395142 -0.7043622 0.6931824 -0.8066731
0.50210744 -0.50323457 -0.5572262 0.06020874 -0.021772848 0.3993034 0.09858204 -0.32157934
00000000: 1c5c 86be 1fa8 1bbf 640a babe 83a9 973e
00000010: 319a 8cbb a8f2 bcbe ac7b 5c3e a9bf 84be
00000020: 5c58 733e 271f c03e f9b6 903e b46f 7cbe
00000030: b7b0 6b3d 8be8 5f3e 4aec 073e 7dd3 e2bd
00000040: 0ab0 563e 3506 da3d f756 41bd a0d3 b1be
00000050: 69db cf3e b176 0fbd bee0 2f3f 37c1 42be
00000060: d0f3 a03e 4bbb c3bd e414 2b3e 4aba 92be
00000070: cf96 2c3f 94fa 413e e83a 03bf 847f 04be
00000080: f05c f73e a94d a4be 43e9 29bf 0ae5 a1bd
00000090: a05f 19bf dc51 ae3e 14a9 4d3f 8823 fe3e
000000a0: 4cee 0dbe 0fd3 823e 5577 a3be 615c e13e
000000b0: d100 debe fb4e 19bf 7cc4 d5be ffda 99be
000000c0: 92a6 56bf 89a0 f2be bbbc 29bf 7cf2 613d
000000d0: 7bc8 f7be 1551 34bf 6774 313f 2182 4ebf
000000e0: 1d8a 003f fbd3 00bf 60a6 0ebf 719d 763d
000000f0: f95c b2bc 7f71 cc3e 61e5 c93d 0ca6 a4be

fc2.weight f4 [64, 64]
0.27882046 0.30962637 0.41609034 -0.099163815 0.17165089 -0.011776283 0.012433939 0.20570086
-0.16329181 -0.2184891 -0.43292218 0.10162806 0.13274533 -0.028519822 0.09497093 0.0531986
0.09621901 -0.13291399 0.35409442 0.10303605 0.058783013 0.14556782 -1.2996595 -0.15265323
0.06795275 0.3848567 0.23320365 -0.034643706 -0.30648178 0.14648359 -0.072379954 0.2126559
-0.1910397 -0.67875916 -0.025631856 -0.21372946 -0.1755015 -0.3094652 -0.2656043 -0.34341624
-0.0029763284 -0.29389188 -0.09419643 0.118397474 0.1309226 0.010029333 0.32631886 -0.15563421
0.041198175 -0.019512735 0.08352429 0.24321297 0.15218733 0.13005453 -0.22590259 0.42350042
0.11522008 0.0825932 -0.11056173 -0.08476128 0.0646833 -0.2115699 -0.06998707 -0.10102566
0.100908294 -0.13893852 0.26034695 -0.018667918 0.039036263 -0.048905507 0.20803796 -0.010739717
0.19044288 0.14088704 0.021706464 -0.15264104 -0.09196853 0.060892396 -0.27010754 -0.043231327
-0.19657983 -0.0965843 0.07837392 -0.41037208 -0.33817464 -0.07016583 0.10116617 0.10677035
0.14355281 0.17767891 0.0937057 -0.28804067 0.09089709 -0.20746677 -0.59021306 0.08536108
0.095941804 0.030696899 0.3943211 -0.30481514 -0.01090445 -0.23893644 0.3080474 0.28541186
-0.05688481 -0.027412327 0.53234845 0.055705287 -0.0037676955 0.008921075 0.00072612654 0.149373
-0.11973502 -0.17683922 0.03755833 -0.016135016 -0.15688768 0.029942324 -0.11048153 -0.2217771
0.08468658 -0.63226175 0.027618786 0.14321212 -0.10216504 0.09304405 0.1145768 0.14244242
0.017735478 -0.08829998 -0.14611451 0.06328409 -0.55133396 -0.043463364 -0.0549766 0.0003593813
0.069415316 0.1107969 0.2080395 -0.4902536 -0.19524749 -0.03463773 -0.09532323 -0.4506013
0.06253254 -0.124154314 -0.0484576 0.28351498 0.01355892 -0.3695739 0.019538201 0.16338988
0.12346365 -0.2522641 -0.01755843 0.14396851 0.078219526 -0.035535984 0.5426611 0.14814524
-0.070752755 0.239446 -0.11958593 0.04019226 -0.12663913 0.24519217 -0.11615598 -0.2556789
0.040395975 0.07278547 -1.2957973 -0.07014542 0.011931103 0.04918076 -0.20254037 -0.13599494
0.027517255 0.23343726 -0.0014894047 0.0734892 0.18527228 0.092528604 0.16363008 0.031752665
-0.0026088331 0.39223894 0.17214805 0.15310623 -0.12556446 0.01621862 0.15158314 0.027331114
0.0073453365 -0.052725397 0.0608238 0.049386702 0.07949785 -0.010214493 -0.15042394 -0.05204925
-0.018282631 0.07838864 0.04903588 0.0021458212 0.088303916 -0.09869732 -0.023179011 0.070173316
-0.14620015 -0.031862613 0.017250877 0.0052580587 -0.08977088 0.051887434 -0.0009226736 -0.037506983
0.018565489 -0.043969113 -0.13946527 -0.00085873605 0.009862728 0.07682332 -0.09154894 0.042194247
-0.07619685 -0.12666312 0.074578024 -0.08487391 0.05985999 -0.13857217 -0.13636445 0.036097802
0.089723945 -0.10969953 -0.07404087 -0.09414339 0.048658274 -0.03528425 -0.065211445 0.004158272
-0.01956378 0.020847127 0.0038477264 -0.11654862 -0.0006039544 0.08796079 0.04746884 -0.03460925
0.049862567 -0.0025791295 0.095885366 -0.0028307599 -0.05283881 -0.104037724 -0.085185625 -0.13441296
00000000: 8ec1 8e3e 5987 9e3e cb09 d53e 6616 cbbd
00000010: 40c5 2f3e 50f1 40bc b8b7 4b3c 3fa3 523e
00000020: f835 27be 9bbb 5fbe faa7 ddbe 5f22 d03d
00000030: 64ee 073e 67a2 e9bc 1e80 c23d c6e6 593d
00000040: 790e c53d 9b1a 08be dd4b b53e 9104 d33d
00000050: 75c6 703d bb0f 153e 3e5b a6bf 2151 1cbe
00000060: d02a 8b3d f00b c53e f0cc 6e3e 8fe6 0dbd
00000070: 2eeb 9cbe cbff 153e f13b 94bd 78c2 593e
00000080: e99f 43be 29c3 2dbf e6f9 d1bc e5db 5abe
00000090: aab6 33be 3972 9ebe 49fd 87be 41d4 afbe
000000a0: 810e 43bb ff78 96be 0fea c0bd 607a f23d
000000b0: 9310 063e 1252 243c 4413 a73e 935e 1fbe
000000c0: 6bbf 283d 2cd9 9fbc c80e ab3d d20c 793e
000000d0: ffd6 1b3e 042d 053e 0253 67be 0cd5 d83e
000000e0: 81f8 eb3d a026 a93d 306e e2bd 5297 adbd
000000f0: ae78 843d c8a5 58be 6255 8fbd 8be6 cebd
00000100: 02a9 ce3d e645 0ebe 324c 853e 76ed 98bc
00000110: 7de4 1f3d 2451 48bd e707 553e a3f5 2fbc
00000120: 7503 433e b144 103e c1d1 b13c ef4d 1cbe
00000130: ff59 bcbd 4e6a 793d 894b 8abe 5513 31bd
00000140: 394c 49be fdcd c5bd 8182 a03d 4a1c d2be
00000150: 3a25 adbe 1ab3 8fbd 3530 cf3d 6aaa da3d
00000160: 82ff 123e 76f1 353e c6e8 bf3d 117a 93be
00000170: 4128 ba3d 2b72 54be 3418 17bf cad1 ae3d
00000180: 237d c43d 1078 fb3c 75e4 c93e bb10 9cbe
00000190: 94a8 32bc c1ab 74be 64b8 9d3e 8121 923e
000001a0: 0c00 69bd d18f e0bc fd47 083f 3a2b 643d
000001b0: 71eb 76bb b329 123c 8759 3e3a 3cf5 183e
000001c0: a237 f5bd 5715 35be c3d6 193d 952d 84bc
000001d0: 2aa7 20be 9b49 f53c 2444 e2bd 8919 63be
000001e0: 2870 ad3d e8db 21bf cb40 e23c 33a6 123e
000001f0: e83b d1bd e18d be3d 3ea7 ea3d 6ddc 113e
00000200: fe49 913c 9fd6 b4bd 0b9f 15be 179b 813d
00000210: 3924 0dbf a406 32bd 252f 61bd 576b bc39
00000220: 9e29 8e3d 7ce9 e23d 4f08 553e 8502 fbbe
00000230: f5ee 47be 4be0 0dbd d338 c3bd 37b5 e6be
00000240: 0f11 803d 9e44 febd 7a7b 46bd e028 913e
00000250: 3b26 5e3c ca38 bdbe 940e a03c ad4f 273e
00000260: 83da fc3d c328 81be b2d6 8fbc 7b6c 133e
00000270: 8f31 a03d 2e8e 11bd d6eb 0a3f 63b3 173e
00000280: d2e6 90bd 5531 753e 78e9 f4bd a4a0 243d
00000290: b0ad 01be a813 7b3e 30e3 edbd 58e8 82be
000002a0: 4076 253d 8c10 953d b0dc a5bf 67a8 8fbd
000002b0: ac7a 433c c471 493d be66 4fbe 4242 0bbe
000002c0: de6b e13c 2d0a 6f3e 2138 c3ba 8181 963d
000002d0: 04b8 3d3e a37f bd3d a58e 273e 150f 023d
000002e0: f5f8 2abb 8bd3 c83e 9447 303e e1c7 1c3e
000002f0: f893 00be e9dc 843c 9c38 1b3e 80e5 df3c
00000300: 26b1 f03b 96f6 57bd 6022 793d b649 4a3d
00000310: c5cf a23d b05a 27bc bc08 1abe 9831 55bd
00000320: 75c5 95bc 398a a03d d9d9 483d e8a0 0c3b
00000330: afd8 b43d d221 cabd e9e1 bdbc 07b7 8f3d
00000340: 7eb5 15be 5f82 02bd b651 8d3c cb4b ac3b
00000350: ccd9 b7bd eb87 543d 94df 71ba eca0 19bd
00000360: a716 983c f518 34bd fccf 0ebe cd1c 61ba
00000370: 4897 213c 8b55 9d3d 037e bbbd e0d3 2c3d
00000380: 180d 9cbd fab3 01be 5dbc 983d 5fd2 adbd
00000390: c02f 753d dde5 0dbe 1fa3 0bbe 4adb 133d
000003a0: 30c1 b73d 26aa e0bd bda2 97bd 40ce c0bd
000003b0: e64d 473d 3886 10bd 948d 85bd 1d42 883b
000003c0: 3844 a0bc 98c7 aa3c 232a 7c3b 0bb1 eebd
000003d0: b252 1eba c924 b43d b06e 423d 6ec2 0dbd
000003e0: b13c 4c3d 9d06 29bb 8c5f c43d 4584 39bb
000003f0: 826d 58bd bb11 d5bd cd75 aebd 8da3 09be

fc2.bias f4 [64]
-0.10078764 0.22838245 0.0046046907 0.0119803585 0.11208234 0.11013132 -0.028746601 0.1665676
0.31843793 -0.026845183 0.17100808 0.05277286 0.098755665 0.052837107 0.12646882 0.19992146
0.09837381 0.07142199 0.15275712 0.07127011 0.06741925 0.112650976 0.24215321 0.101628445
0.027524313 -0.14297669 0.20509599 0.08389634 0.11146291 0.04174322 0.20895882 -0.14073598
0.103165165 -0.068750404 0.23338899 -0.011277762 -0.03645212 0.1886323 -0.23528793 0.12872222
-0.10087903 0.12744497 0.31289637 -0.09506613 0.008095692 -0.015595926 0.09620368 -0.040864103
0.11625155 0.03990354 -0.088417225 0.012283757 0.075241745 0.06819254 0.101465225 0.10181177
0.024667868 0.107873335 -0.054979783 0.107978925 0.15631488 -0.08011229 0.034523305 -0.024746837
00000000: c069 cebd 17dd 693e f2e2 963b 4449 443c
00000010: 6d8b e53d 888c e13d fe7d ebbc b290 2a3e
00000020: 4c0a a33e 6eea dbbc be1c 2f3e 5b28 583d
00000030: 6940 ca3d b96b 583d 0b81 013e 36b8 4c3e
00000040: 3578 c93d b145 923d 5d6c 1c3e 10f6 913d
00000050: 1b13 8a3d 8eb5 e63d 03f7 773e 9322 d03d
00000060: ab7a e13c 7b68 12be af04 523e d8d1 ab3d
00000070: ab46 e43d f0fa 2a3d 4df9 553e 181d 10be
00000080: 4248 d33d 03cd 8cbd 86fd 6e3e 5dc6 38bc
00000090: d14e 15bd d328 413e 52ef 70be c2cf 033e
000000a0: aa99 cebd ef80 023e f433 a03e 08b2 c2bd
000000b0: cba3 043c 0e86 7fbc 6f06 c53d 1e61 27bd
000000c0: 4b15 ee3d e571 233d 1714 b5bd d041 493c
000000d0: 5818 9a3d 88a8 8b3d 00cd cf3d b082 d03d
000000e0: 4514 ca3c b2ec dc3d 7b32 61bd 0e24 dd3d
000000f0: 0211 203e ea11 a4bd 4f68 0d3d e1b9 cabc

mean.weight f4 [1, 64]
-0.7884611 -0.26661095 0.20900717 0.0043972535 0.48315927 0.3376459 0.21396524 0.13487904
-0.6072436 -0.37434867 0.25115448 0.5380384 -0.46020585 1.4806848 0.15526591 -0.23150608
-0.13399969 -0.16965193 0.21035472 0.027238399 0.34197795 -0.1716618 -0.3026869 -0.53181684
-0.036413882 -0.008040142 -0.2552956 0.29678065 -0.106909506 0.27323803 0.39486155 -0.11602495
0.17318664 -0.2040611 -0.15298873 0.42841128 -0.1101388 -0.25294665 0.74790406 0.124677315
0.15173309 -0.3382503 0.59938437 0.08545727 -0.017343001 -0.20321658 0.7681201 0.55532336
-0.2189447 -0.02375957 0.025600275 0.09713875 -0.1084275 0.18212776 0.16008537 0.34190622
-0.10284935 0.13788572 0.017215403 -0.20692177 -0.12919374 0.25349206 -0.15862279 0.19187781
00000000: 96d8 49bf 3b81 88be fa05 563e d616 903b
00000010: a760 f73e ecdf ac3e b419 5b3e bb1d 0a3e
00000020: 5174 1bbf a1aa bfbe 5297 803e e2bc 093f
00000030: 1aa0 ebbe 1487 bd3f 07fe 1e3e ee0f 6dbe
00000040: 3737 09be 3cb9 2dbe 3a67 573e 1023 df3c
00000050: bc17 af3e 1cc8 2fbe c7f9 9abe 2625 08bf
00000060: b926 15bd cdba 03bc 1bb6 82be a2f3 973e
00000070: 5ff3 dabd dbe5 8b3e 4b2b ca3e 7d9e edbd
00000080: d757 313e 65f5 50be 14a9 1cbe b958 db3e
00000090: 7490 e1bd 3982 81be a476 3f3f d256 ff3d
000000a0: eb5f 1b3e 252f adbe 4171 193f 3904 af3d
000000b0: e912 8ebc 0218 50be 85a3 443f ac29 0e3f
000000c0: 0a33 60be 6ea3 c2bc abb7 d13c aef0 c63d
000000d0: 3d0f debd b37f 3a3e 6bed 233e 550e af3e
000000e0: aea2 d2bd ea31 0d3e 5107 8d3c 4de3 53be
000000f0: 5d4b 04be b6c9 813e 036e 22be 9e7b 443e
