robomimic_tasks/bc_lift_expert_full_ph.pth (torch, 27998 bytes, 6 tensors)

weight f4 [64, 19]
0.19030316 -0.10441822 0.20451881 0.086227015 -0.19563021 -0.19035846 -0.036884002 0.09597527
0.053861476 -0.105170436 0.09342166 0.07400364 0.08026956 -0.13622937 -0.19034101 0.012656442
-0.03506776 0.17194562 0.1305296 -0.099198975 0.2765045 0.124604575 -0.0009564291 0.117812686
-0.15037714 -0.04507754 -0.14147748 0.17545398 -0.17896298 -0.2841202 0.089034714 0.21012647
-0.00889627 -0.065964125 0.285597 0.22618598 1.226914 -0.9931435 -0.03823273 0.28816527
-0.27792862 0.038285688 0.5313365 0.2136036 0.018980375 -0.21666399 -0.2764749 0.11731634
0.09436367 0.13147013 0.046386417 0.05229792 -0.07933441 0.33865044 -0.15903032 0.9542054
-1.0777833 -0.36227047 -0.094688416 -0.012508571 0.13910374 -0.34741142 0.19220102 0.18253845
-0.47123614 0.76802796 -0.018621473 -0.53935456 0.28153896 -0.22231774 0.22586922 0.5184594
0.3093465 0.6583655 -0.8635601 1.0809036 -1.0432763 0.2528826 -0.092742816 0.3861403
-0.20724843 -0.12221982 -0.2672607 0.95297706 -0.7334929 0.9107871 -0.29090163 0.22466768
0.08250489 0.09829738 -0.08621167 -0.15069708 0.7500051 1.1035373 -0.9091246 0.10967259
-0.43062717 0.048495702 0.24949215 -0.5439354 -0.091052204 -0.06669923 -0.07774331 0.86180955
-0.5953752 0.2138908 -0.002614418 0.090985104 0.07384375 0.07759313 0.29619354 -0.3646076
1.0921538 -0.75619775 0.7796099 -0.38621348 0.14847651 -0.4019178 -0.10517057 0.22916044
0.1942346 -0.13562347 0.86777145 -1.334797 0.6588592 -0.17235357 0.13639201 -0.010739463
-0.41599253 -0.32351527 -0.57029533 0.8038805 -0.9217819 0.1241185 -0.117348075 0.10438541
0.093777604 1.2453586 0.05283152 -0.13660038 -0.13910148 0.13229361 -0.6500466 0.031016173
0.15705016 0.004895707 0.19633263 0.16456014 0.0045877863 -0.025205087 1.0721823 -1.2178506
-0.2882026 -0.2591468 0.19609351 0.12680969 -0.6629674 -0.08516608 0.05612271 0.29734215
-0.16461204 0.39727196 -0.18916301 -0.12438507 0.1574243 -0.21464586 0.10065525 0.20313655
0.38319322 1.0977062 -0.9109165 -0.06050828 0.038065128 0.011771581 0.045421187 0.09369947
-0.20810562 0.17379235 -0.09777363 -0.0018267148 0.08375841 0.17329223 -0.1693218 -0.035956588
-0.15869571 0.010773253 -0.19514458 0.19912936 -0.20823392 0.05395911 0.2334817 0.02790098
-0.1233675 -0.01591815 0.38885817 -0.06353046 0.103586696 0.01968592 0.049873803 0.12569046
0.05160589 0.13769412 0.10270573 0.05651957 -0.10633968 0.040163722 0.17631274 1.0091407
-1.2209557 0.12480584 -0.32017726 0.027895464 0.59833074 0.98595583 0.26557708 -0.115136385
-0.23941815 -0.43209007 -0.6478732 -0.3004686 -0.20270227 0.17281918 0.002166712 -0.044067375
-0.079177685 -0.44527054 1.1739202 -1.1019149 0.042895578 -0.34714332 0.13489458 0.18906102
0.51423985 -0.1376974 0.1533975 1.6565055 1.0889863 0.005440581 0.7957128 -0.06695807
-0.10279704 0.14157091 -0.31808963 -0.61613935 0.7205392 -0.9677495 0.8020414 -0.27493995
0.1511975 0.33476594 0.19944637 -0.40960175 -0.02555777 0.12751092 0.37883976 0.2207611
00000000: d5de 423e 38d9 d5bd 616d 513e ca97 b03d
00000010: 4953 48be 54ed 42be ae13 17bd af8e c43d
00000020: da9d 5c3d 9963 d7bd db53 bf3d 388f 973d
00000030: 5e64 a43d b67f 0bbe c1e8 42be f75c 4f3c
00000040: 36a3 0fbd 8312 303e 8da9 053e d528 cbbd
00000050: ff91 8d3e af30 ff3d dfb8 7aba c747 f13d
00000060: 77fc 19be 3aa3 38bd 79df 10be 35aa 333e
00000070: 1242 37be 3478 91be d557 b63d 652b 573e
00000080: a9c1 11bc 3318 87bd c539 923e 4c9d 673e
00000090: 850b 9d3f a73e 7ebf ec99 1cbd 668a 933e
000000a0: a94c 8ebe 74d1 1c3d ab05 083f e7ba 5a3e
000000b0: bb7c 9b3c 2add 5dbe 1e8e 8dbe 8d43 f03d
000000c0: bd41 c13d 1ba0 063e afff 3d3d 5836 563d
000000d0: 147a a2bd 9763 ad3e d8d8 22be ce46 743f
000000e0: cef4 89bf 847b b9be 00ec c1bd c0f0 4cbc
000000f0: 3671 0e3e e9df b1be 58d0 443e 5ceb 3a3e
00000100: dd45 f1be 7b9d 443f 0f8c 98bc 2413 0abf
00000110: e025 903e 43a7 63be 434a 673e c1b9 043f
00000120: aa62 9e3e a48a 283f 4612 5dbf 0d5b 8a3f
00000130: 148a 85bf d479 813e f2ef bdbd 2eb4 c53e
00000140: ef38 54be 634e fabd 65d6 88be 4ef6 733f
00000150: 31c6 3bbf 5829 693f 0ff1 94be 490f 663e
00000160: 53f8 a83d 2350 c93d be8f b0bd 5650 1abe
00000170: 5600 403f b640 8d3f 64bc 68bf 069c e03d
00000180: 2a7b dcbe 6ea3 463d df7a 7f3e 5a3f 0bbf
00000190: 9479 babd 9b99 88bd e237 9fbd 8d9f 5c3f
000001a0: 826a 18bf 3106 5b3e a856 2bbb 6656 ba3d
000001b0: 643b 973d 26e9 9e3d aea6 973e d9ad babe
000001c0: b2cb 8b3f 2d96 41bf 8494 473f c6bd c5be
000001d0: 3a0a 183e 2bc8 cdbe ab63 d7bd 09a9 6a3e
000001e0: 6fe5 463e e1e0 0abe 4526 5e3f a1da aabf
000001f0: ffaa 283f 747d 30be 59aa 0b3e 93f4 2fbc
00000200: f9fc d4be cba3 a5be e0fe 11bf 1dcb 4d3f
00000210: e6f9 6bbf d731 fe3d 3054 f0bd 05c8 d53d
00000220: 790e c03d e967 9f3f dd65 583d f8e0 0bbe
00000230: 9e70 0ebe fa77 073e 7469 26bf a115 fe3c
00000240: c2d1 203e 2b6c a03b 6c0b 493e 7482 283e
00000250: 2455 963b e67a cebc 453d 893f 87e2 9bbf
00000260: 4b8f 93be e4ae 84be bdcc 483e 66da 013e
00000270: 3bb8 29bf 8e6b aebd ede0 653d 3b3d 983e
00000280: 0f90 28be 3b67 cb3e f3b3 41be 99bd febd
00000290: d633 213e 20cc 5bbe 5724 ce3d 0703 503e
000002a0: e731 c43e a381 8c3f d331 69bf 88d7 77bd
000002b0: 2eea 1b3d 97dd 403c 910b 3a3d 82e5 bf3d
000002c0: a419 55be 9ff6 313e 8a3d c8bd 616e efba
000002d0: 8789 ab3d 8573 313e b262 2dbe 3747 13bd
000002e0: 2181 22be 4c82 303c fbd3 47be 91e8 4b3e
000002f0: 463b 55be 3a04 5d3d d415 6f3e 9990 e43c
00000300: 1aa8 fcbd c866 82bc 6b18 c73e 421c 82bd
00000310: 4325 d43d 5e44 a13c 7948 4c3d 00b5 003e
00000320: b360 533d b0ff 0c3e 6257 d23d 1181 673d
00000330: 9ec8 d9bd b782 243d 548b 343e 862b 813f
00000340: 4748 9cbf 349a ff3d 46ee a3be 0785 e43c
00000350: 342c 193f 9a67 7c3f b8f9 873e a0cc ebbd
00000360: 082a 75be e93a ddbe 05db 25bf 05d7 99be
00000370: 2f91 4fbe 83f7 303e 65ff 0d3b fe7f 34bd
00000380: e927 a2bd 80fa e3be 0443 963f 8c0b 8dbf
00000390: 46b3 2f3d c5bc b1be ce21 0a3e 3699 413e
000003a0: 39a5 033f 8c00 0dbe 3c14 1d3e 5f08 d43f
000003b0: e763 8b3f e746 b23b d6b3 4b3f 5021 89bd
000003c0: 4187 d2bd f7f7 103e a5dc a2be 4fbb 1dbf
000003d0: 4275 383f 6ebe 77bf 9652 4d3f eec4 8cbe
000003e0: 84d3 1a3e 7166 ab3e ab3b 4c3e 52b7 d1be
000003f0: 875e d1bc 3992 023e 49f7 c13e 330f 623e

bias f4 [64]
-0.16474575 -0.15402475 0.043204628 0.18247016 0.1445436 -0.09408786 -0.2856317 -0.24374518
-0.033764254 -0.092491515 0.05720818 -0.16213189 0.21670598 0.2580574 0.10480024 -0.067163356
-0.22261411 0.18007322 -0.19358473 0.15846373 0.2294605 -0.021765769 0.15390615 0.06852407
-0.23723905 0.019003177 -0.2468061 0.15626712 0.25922087 0.11935758 -0.21163115 -0.22632691
0.1108043 -0.22502498 0.24309328 -0.13462274 -0.16218378 0.2230291 -0.1004923 -0.114034005
-0.14005254 0.059708696 -0.20212604 -0.079250686 0.2661466 0.12652476 0.010063168 0.04667524
-0.08777061 0.14904395 0.13610202 0.21495168 -0.11749646 0.1341534 0.21598299 0.013718751
0.24229902 0.13532476 0.074884824 -0.031217337 0.09882638 0.010115785 -0.20484431 0.27903005
00000000: 1cb3 28be aab8 1dbe 56f7 303d 75d9 3a3e
00000010: 3d03 143e 23b1 c0bd 513e 92be 5698 79be
00000020: 634c 0abd 316c bdbd 2053 6a3d e705 26be
00000030: 2ce8 5d3e 1920 843e 82a1 d63d f18c 89bd
00000040: f4f4 63be 1d65 383e 133b 46be 5144 223e
00000050: b1f7 6a3e 204e b2bc 9399 1d3e 5956 8c3d
00000060: cbee 72be 8dac 9b3c bdba 7cbe 7d04 203e
00000070: 99b8 843e bf71 f43d d6b5 58be 3ec2 67be
00000080: 5ded e23d f36c 66be 72ed 783e 8bda 09be
00000090: 8113 26be be61 643e e8ce cdbd a98a e9bd
000000a0: ef69 0fbe 1b91 743d 21fa 4ebe 2f4e a2bd
000000b0: 5e44 883e b58f 013e fcdf 243c 892e 3f3d
000000c0: 14c1 b3bd fa9e 183e 545e 0b3e 4b1c 5c3e
000000d0: fca1 f0bd 825f 093e a52a 5d3e 9dc4 603c
000000e0: 3c1d 783e 9392 0a3e 375d 993d 80bb ffbc
000000f0: 7c65 ca3d adbc 253c b5c2 51be 07dd 8e3e

weight f4 [64, 64]
-0.11771478 -0.21596551 0.12852482 0.07763086 0.097130485 -0.015449775 -0.02918355 -0.026603628
-0.26824045 0.06718421 0.010601413 -0.30120432 0.28457654 -0.0062719267 0.27886894 -0.04413846
0.07438867 0.23229891 0.03212209 0.028220516 0.22716361 0.37194085 -0.08065953 0.025464432
-0.032042366 0.08865015 -0.29788232 0.42804012 -0.0785295 -0.1382851 0.054159924 0.06369053
0.024067204 -0.09512736 0.003545775 -0.66240305 0.10587607 0.058930553 0.12435435 -0.15671468
-0.19940887 0.033156615 0.0623406 -0.016903251 0.3510835 0.2194858 -0.06360768 0.033265203
0.057959013 0.043651327 -0.17882314 0.074270844 0.092359334 0.02289842 -0.2121994 0.083695024
-0.073407695 0.22834817 -0.035327654 -0.0013011056 0.018545708 0.003951571 -0.23778357 -0.21119921
-0.099248484 0.19182406 0.21927574 -0.23363999 0.28189632 0.17226681 0.19091816 0.20345578
0.19990408 0.04231678 -0.005922131 0.23531865 -0.01818962 -0.0826098 -0.21501699 -0.2131499
0.09670025 0.12796967 0.11514467 0.044600103 0.10871379 0.2723493 -0.19039783 0.31144214
0.5464881 -0.11553855 -0.12735838 0.09432224 -0.18848552 -0.12841144 -0.11978391 -0.051891297
-0.0145298615 0.106488496 -0.16233253 -1.4317267 0.20225035 -0.2214747 0.19477853 0.121744215
-0.55337304 0.010963366 0.11006352 -0.094016284 0.18089625 0.33931208 -0.20510526 0.01913312
0.4084801 -0.102075554 0.2321512 -0.00026290334 -0.11975981 0.0019089972 -0.23514679 -0.1934073
-0.28809062 0.046758242 0.45333606 -0.16537957 -0.08650736 -0.18101424 0.07980392 -0.21546231
-0.115856916 -0.06424078 -0.006408766 -0.08616632 0.09004198 0.09986268 -0.010730073 0.021468103
-0.016017675 -0.121597886 0.046411246 -0.049868703 -0.05667439 -0.09933269 -0.09436606 0.006509751
0.040296942 0.028810412 -0.10231575 -0.094935656 0.042064324 0.021428734 0.10577679 -0.02777493
0.00060372055 -0.08782947 -0.04362975 -0.10554831 -0.12013808 -0.034486786 0.0937902 0.007438481
-0.05366659 -0.05572033 0.08210327 -0.023241505 -0.07120384 -0.10622516 0.09512167 0.09833191
-0.08802335 -0.07072441 0.0036385357 0.06388889 -0.11840436 -0.011777192 0.096633196 -0.096695825
0.031402007 -0.12341522 -0.1193036 0.033440456 -0.018365607 0.051623777 -0.0800934 -0.01787883
-0.09279871 0.07408176 -0.07670386 0.09789418 0.016428456 -0.10054484 0.008297518 -0.04175538
-0.07571201 0.036817618 -0.059593454 0.08495696 0.26562262 0.056832485 -0.122975856 -0.03720782
0.14797439 -0.028160378 -0.0083496645 -0.2250314 0.19024362 0.09624413 0.22807556 -0.07957159
-0.022800371 0.19510919 -0.0670878 -0.16330239 0.12838517 0.12335734 0.075040326 0.032295868
0.32814747 -0.07069124 0.004996079 0.16497777 0.15371238 0.05549062 -0.063016236 -0.07568957
0.026327234 -0.112669095 0.15501119 -0.6138072 0.1914109 -0.043636046 0.19479984 0.07563066
-0.10816595 -0.21892251 0.06339398 0.1135982 -0.068424 -0.013213954 -0.10475274 -0.006681076
-0.12224402 -0.11532954 -0.16300471 -0.07989059 0.19708528 -0.08833038 -0.28343946 0.037178148
-0.18001434 -0.06389491 -0.008008257 -0.028401613 0.17109543 -0.08951637 0.12758116 -0.2848436
00000000: 7214 f1bd 1026 5dbe 039c 033e eefc 9e3d
00000010: 59ec c63d 0e21 7dbc 5712 efbc daef d9bc
00000020: d056 89be e097 893d 8db1 2d3c 7437 9abe
00000030: 04b4 913e bc84 cdbb e9c7 8e3e 88ca 34bd
00000040: 1659 983d c4df 6d3e 7492 033d b62e e73c
00000050: 949d 683e 086f be3e d330 a5bd c99a d03c
00000060: db3e 03bd 368e b53d 0884 98be 1328 db3e
00000070: 13d4 a0bd 9c9a 0dbe ccd6 5d3d 2e70 823d
00000080: 9628 c53c 22d2 c2bd 3c60 683b 3f93 29bf
00000090: 8ed5 d83d 2a61 713d 7ead fe3d d079 20be
000000a0: d731 4cbe 3bcf 073d db58 7f3d b078 8abc
000000b0: 37c1 b33e e3c0 603e be44 82bd 1841 083d
000000c0: 6e66 6d3d bccb 323d 6a1d 37be 501b 983d
000000d0: e426 bd3d 7895 bb3c cd4a 59be 4c68 ab3d
000000e0: c656 96bd 1ad4 693e bbb3 10bd dc89 aaba
000000f0: 2bed 973c 2e7c 813b 897d 73be 9b44 58be
00000100: ca42 cbbd 876d 443e d289 603e 523f 6fbe
00000110: b754 903e b666 303e 0d80 433e b656 503e
00000120: a8b3 4c3e 5c54 2d3d 6f0e c2bb 5ff7 703e
00000130: 6602 95bc 542f a9bd 6a2d 5cbe f843 5abe
00000140: c80a c63d 7b0a 033e f8d0 eb3d 99ae 363d
00000150: 56a5 de3d 5e71 8b3e a6f7 42be 5875 9f3e
00000160: a5e6 0b3f 7a9f ecbd 3c6a 02be 052c c13d
00000170: 5902 41be 4a7e 03be 4451 f5bd f88b 54bd
00000180: a80e 6ebc a416 da3d 803a 26be d242 b7bf
00000190: b71a 4f3e 44ca 62be 0674 473e 0855 f93d
000001a0: dba9 0dbf b19f 333c fc68 e13d 9c8b c0bd
000001b0: de3c 393e 50ba ad3e 1d07 52be 10bd 9c3c
000001c0: 4e24 d13e fd0c d1bd 0bb9 6d3e 4ad6 89b9
000001d0: a244 f5bd 5137 fa3a 52ca 70be 900c 46be
000001e0: 9d80 93be 9285 3f3d aa1b e83e 4359 29be
000001f0: c52a b1bd cc5b 39be 3d70 a33d 27a2 5cbe
00000200: 6446 edbd ac90 83bd a000 d2bb f877 b0bd
00000210: ee67 b83d ce84 cc3d 30cd 2fbc e0dd af3c
00000220: 8037 83bc 5008 f9bd b819 3e3d 2043 4cbd
00000230: 6823 68bd f06e cbbd fe42 c1bd c04f d53b
00000240: 680e 253d d003 ec3c ec8a d1bd a06d c2bd
00000250: a44b 2c3d 508b af3c 80a1 d83d 4088 e3bc
00000260: 0043 1e3a f0df b3bd 1cb5 32bd b629 d8bd
00000270: f40a f6bd 0442 0dbd 1415 c03d 80be f33b
00000280: 80d1 5bbd 003b 64bd c225 a83d f864 bebc
00000290: 52d3 91bd 948c d9bd 26cf c23d 3e62 c93d
000002a0: 9645 b4bd f6d7 90bd 8074 6e3b 2ed8 823d
000002b0: fc7d f2bd 20f5 40bc a0e7 c53d 7608 c6bd
000002c0: 649f 003d 1ec1 fcbd 7255 f4bd dcf8 083d
000002d0: 7873 96bc 7473 533d 0208 a4bd a076 92bc
000002e0: 400d bebd 2eb8 973d ea16 9dbd be7c c83d
000002f0: f894 863c 74ea cdbd 50f2 073c b007 2bbd
00000300: e60e 9bbd 12ce 163d 4418 74bd eafd ad3d
00000310: b0ff 873e 2ec9 683d c4da fbbd 3a67 18bd
00000320: 9986 173e 98b0 e6bc 08cd 08bc a26e 66be
00000330: 39cf 423e a41b c53d a48c 693e 6ef6 a2bd
00000340: d8c7 babc b4ca 473e 5465 89bd be38 27be
00000350: 6777 033e c6a2 fc3d beae 993d ac48 043d
00000360: f202 a83e 92c6 90bd 26b6 a33b efef 283e
00000370: c766 1d3e 224a 633d a80e 81bd 2203 9bbd
00000380: 36ac d73c 0ebf e6bd 41bb 1e3e 7822 1dbf
00000390: 3801 443e b6bb 32bd 9c79 473e 3fe4 9a3d
000003a0: 1c86 ddbd 392d 60be b4d4 813d 2ca6 e83d
000003b0: e221 8cbd 577f 58bc 9b88 d6bd edec dabb
000003c0: 135b fabd e531 ecbd b5ea 26be ad9d a3bd
000003d0: b9d0 493e 8fe6 b4bd fa1e 91be 1d48 183d
000003e0: ae55 38be 56db 82bd 1035 03bc 80aa e8bc
000003f0: a433 2f3e 5c54 b7bd a3a4 023e 05d7 91be

bias f4 [64]
-0.024833526 0.057512634 -0.032656044 0.051033407 0.0008761287 -0.068959236 -0.13345604 -0.05574073
0.058746483 -0.08688905 0.060373053 -0.0739683 0.06131819 -0.041737415 -0.022813335 0.07889566
0.10073845 0.121987574 0.020863993 0.108955584 0.07697301 0.057142347 -0.030273244 -0.08699156
-0.117387354 0.07591275 -0.026270866 0.018180177 -0.008249763 0.08011596 -0.11842524 0.06027926
-0.038251575 0.0281153 -0.015551072 0.05294223 -0.01771933 0.013315536 0.107554875 -0.101917714
-0.04297224 0.095083475 0.026474547 -0.03338012 0.041403074 -0.00091542304 -0.057404555 0.1022352
-0.1068832 0.116019666 0.2125825 -0.07141862 0.16462287 -0.12904777 0.061849248 0.008180806
0.14072177 0.13212372 0.057505954 -0.026314901 -0.06571445 0.05827284 -0.019438796 -0.06676718
00000000: ae6f cbbc 5e92 6b3d 58c2 05bd 6808 513d
00000010: 00ac 653a 803a 8dbd b3a8 08be 6450 64bd
00000020: 27a0 703d e3f2 b1bd bc49 773d b17c 97bd
00000030: c828 7b3d daf4 2abd 08e3 babc 0c94 a13d
00000040: f64f ce3d 9fd4 f93d f7ea aa3c 1b24 df3d
00000050: 07a4 9d3d 180e 6a3d 98ff f7bc a228 b2bd
00000060: c868 f0bd 2578 9b3d 0036 d7bc 98ee 943c
00000070: 042a 07bc d613 a43d ef88 f2bd 63e7 763d
00000080: afad 1cbd 0f52 e63c ecc9 7ebc f4d9 583d
00000090: 2128 91bc 6829 5a3c bb45 dc3d 3cba d0bd
000000a0: a903 30bd 20bb c23d 26e1 d83c 98b9 08bd
000000b0: 4596 293d 00f9 6fba 0a21 6bbd b060 d13d
000000c0: 94e5 dabd b89b ed3d 3aaf 593e ed43 92bd
000000d0: e692 283e 1925 04be a355 7d3d ca08 063c
000000e0: 5e19 103e 714b 073e 5d8b 6b3d 5992 d7bc
000000f0: 4c95 86bd 80af 6e3d 1c3e 9fbc 3bbd 88bd

weight f4 [7, 64]
0.39616066 -0.1948253 0.11747819 0.15796326 -0.119370565 0.8343522 1.212059 -0.086434
-0.042658083 0.19962277 0.41856888 -1.0520431 0.029503165 -0.69020784 0.28673342 -0.0052779745
-0.4602691 -0.1816684 0.1470094 0.57221556 -0.102613695 0.260075 0.0055706203 -0.75583667
-0.0652046 0.028759396 0.025211573 0.05816236 -0.6432336 0.018157495 -2.7610583 0.46260875
0.06672358 0.002766665 0.40849185 0.110091746 0.04256529 -0.14452383 0.26521063 -0.08518855
-0.11821073 -0.007203788 -0.11706779 -0.16550644 0.24339439 -0.12157118 0.02832564 0.10385114
0.0140490085 0.04486136 0.66663855 0.47839937 0.003343073 0.4906571 0.095070474 -0.4447091
0.03489055 -0.18711108 0.1501927 0.22670157 0.079235986 0.43983802 -0.21259461 -0.13314278
-0.3107576 -0.48303142 0.07081023 -0.2878552 -0.09835179 0.19278125 0.038625523 -0.0033421742
-0.07192079 -0.05407355 -0.5772562 0.1144513 -0.013164979 0.3958781 0.2458525 0.2693701
-0.0126810325 0.14871076 0.021056809 -0.07389285 -0.052558847 -0.20071971 0.11191812 0.43578517
-0.11818233 0.091760315 0.11618383 0.06462279 -0.019207604 0.54818356 0.31919885 -0.36064032
0.03438155 -0.32045192 0.11853614 0.08928293 0.17424251 -0.06892221 -0.21594864 -0.020455256
-0.09173239 -0.0009706896 0.07027337 -0.2074597 -0.3114563 0.114140615 0.11224056 -0.030514523
0.097887084 0.12039812 0.046748437 0.5277295 -0.037039228 0.22618793 -0.08832546 1.1019349
-0.062383506 -0.36121786 0.1570934 0.07148153 0.04418926 0.0474312 0.097788855 -0.0842913
-0.2110375 0.076924965 0.029453784 0.10060929 0.01821667 0.675951 0.7719086 -0.1987771
-0.40539074 -0.26840198 -2.0787551 -0.2825932 -0.23093525 0.53996706 0.43697795 -0.40922433
0.3905315 -0.12602533 -0.12479417 -0.32381 -0.06408236 -0.60436195 -0.08471234 0.19938578
-0.02938871 -0.08041343 0.07644692 -0.07842684 -0.1228439 -0.79798883 -0.67537636 -0.17344333
-0.08676063 -0.22426403 0.15524323 -0.062228173 -0.07933903 -0.49198133 0.1904687 -0.12100932
0.0033498458 0.035543572 0.20507155 0.042446434 0.95676506 -0.033610865 -0.11350572 -0.07227546
-0.06290625 0.05085373 -0.92344767 0.6635907 -0.11298937 0.27528998 -0.0103850365 0.3251719
-1.2044779 -0.53403705 -0.055069976 0.30275702 -0.005171433 0.8723762 0.5508209 0.116374135
-0.10943676 0.026350558 -0.08079828 -0.0012933164 -0.06419407 -0.1383792 -0.05181992 0.18549521
0.18642235 -0.11929305 0.039033663 0.092369534 0.10691766 0.064265355 -0.12620722 0.095467
0.031404074 0.036265522 -0.09370304 -0.049743406 -0.108957075 -0.029054921 -0.036841735 -0.05574866
0.055461083 0.087462015 0.09114933 0.09125705 -0.17035423 -0.041581757 -0.0918897 0.11594279
-0.03564902 0.006822725 0.19972904 1.8045306e-05 0.21189867 -0.26595548 -0.045525737 -0.07640149
-0.07478352 0.06479218 -0.07472104 0.010891734 -0.0013252972 -0.1106437 0.040177584 0.12209396
-0.063163176 -0.10887198 -0.20361806 0.08081459 0.1246953 -0.103740826 0.11464081 0.059336055
0.08095836 0.076073825 -0.16188444 -0.078073226 0.08461301 0.028452052 0.037914414 0.036157515
00000000: 92d5 ca3e 4980 47be 6898 f03d 1fc1 213e
00000010: 8e78 f4bd 1b98 553f c024 9b3f 4f04 b1bd
00000020: 3eba 2ebd e969 4c3e a94e d63e 59a9 86bf
00000030: 9fb0 f13c 76b1 30bf b9ce 923e dcf2 acbb
00000040: 64a8 ebbe 4807 3abe a289 163e b87c 123f
00000050: 2127 d2bd 8d28 853e c089 b63b 837e 41bf
00000060: fd89 85bd d398 eb3c 8088 ce3c a83b 6e3d
00000070: f5aa 24bf 07bf 943c 2eb5 30c0 0edb ec3e
00000080: 5fa6 883d f050 353b d825 d13e c877 e13d
00000090: f158 2e3d 0efe 13be b0c9 873e 5677 aebd
000000a0: 7818 f2bd c10d ecbb 3dc1 efbd 857a 29be
000000b0: 613c 793e 50fa f8bd 2c0b e83c e8af d43d
000000c0: d02d 663c 8cc0 373d d3a8 2a3f c3f0 f43e
000000d0: 7517 5b3b 6837 fb3e 4fb4 c23d e9b0 e3be
000000e0: 65e9 0e3d 0c9a 3fbe 1dcc 193e 7524 683e
000000f0: 7a46 a23d 7332 e13e 67b2 59be 9556 08be
00000100: 9f1b 9fbe e54f f7be f404 913d c261 93be
00000110: aa6c c9bd 7368 453e cc35 1e3d 6108 5bbb
00000120: 354b 93bd 3a7c 5dbd 10c7 13bf 7165 ea3d
00000130: edb1 57bc 89b0 ca3e c2c0 7b3e e1ea 893e
00000140: 1bc4 4fbc a247 183e 547f ac3c 2255 97bd
00000150: f247 57bd 7889 4dbe 5435 e53d 3c1f df3e
00000160: 9409 f2bd d5ec bb3d caf1 ed3d f458 843d
00000170: 4459 9dbc c255 0c3f 086e a33e d9a5 b8be
00000180: abd3 0c3d 4612 a4be 13c3 f23d f8d9 b63d
00000190: a16c 323e 1627 8dbd a421 5dbe c891 a7bc
000001a0: 31de bbbd e075 7eba 7ceb 8f3d 5170 54be
000001b0: 3377 9fbe 8ec2 e93d 61de e53d 98f9 f9bc
000001c0: 0679 c83d 4a93 f63d 4a7b 3f3d 4819 073f
000001d0: 72b6 17bd cf9d 673e fbe3 b4bd 340c 8d3f
000001e0: d985 7fbd 8cf1 b8be 18dd 203e e964 923d
000001f0: ccff 343d 3847 423d 8645 c83d eba0 acbd
00000200: 371a 58be d68a 9d3d 1049 f13c 3e0c ce3d
00000210: 203b 953c 200b 2d3f cd9b 453f 398c 4bbe
00000220: 608f cfbe fc6b 89be 530a 05c0 0eb0 90be
00000230: 4a7a 6cbe 483b 0a3f 93bb df3e da85 d1be
00000240: bff3 c73e c90c 01be 1694 ffbd 6dca a5be
00000250: 9d3d 83bd 77b7 1abf aa7d adbd c92b 4c3e
00000260: 98c0 f0bc ccaf a4bd 3490 9c3d 409e a0bd
00000270: 9595 fbbd ff48 4cbf 77e5 2cbf 219b 31be
00000280: 8faf b1bd 78a5 65be 15f8 1e3e f8e2 7ebd
00000290: 807c a2bd fae4 fbbe 3a0a 433e bcd3 f7bd
000002a0: 1689 5b3b 2396 113d 47fe 513e 50dc 2d3d
000002b0: 8eee 743f 8cab 09bd b075 e8bd 2805 94bd
000002c0: fed4 80bd 004c 503d 1167 6cbf 15e1 293f
000002d0: f966 e7bd cff2 8c3e 0026 2abc ee7c a63e
000002e0: 552c 9abf a7b6 08bf 0e91 61bd f802 9b3e
000002f0: 2075 a9bb 0c54 5f3f 9902 0d3f 9055 ee3d
00000300: 6120 e0bd 20dd d73c 9279 a5bd 7f84 a9ba
00000310: 2e78 83bd 47b3 0dbe 2041 54bd 75f2 3d3e
00000320: 80e5 3e3e ea4f f4bd c3e1 1f3d 3d2c bd3d
00000330: a5f7 da3d 8e9d 833d 773c 01be 3484 c33d
00000340: 8fa1 003d 288b 143d 61e7 bfbd bebf 4bbd
00000350: e324 dfbd 9604 eebc 5ce7 16bd b558 64bd
00000360: 292b 633d 491f b33d 80ac ba3d fae4 ba3d
00000370: 5771 2ebe a251 2abd ab30 bcbd 6a73 ed3d
00000380: b504 12bd 2a91 df3b c585 4c3e 0060 9737
00000390: f7fb 583e 512b 88be 3279 3abd 6278 9cbd
000003a0: 1a28 99bd c3b1 843d 5807 99bd 3e73 323c
000003b0: 98b5 adba 2a99 e2bd 4091 243d 660c fa3d
000003c0: b25b 81bd 46f8 debd 4181 50be 1f82 a53d
000003d0: 4060 ff3d 1276 d4bd cdc8 ea3d 5d0a 733d
000003e0: 7fcd a53d 98cc 9b3d 09c5 25be dbe4 9fbd
000003f0: 9649 ad3d 4714 e93c 254c 1b3d e719 143d

bias f4 [7]
0.028308397 0.18781532 -0.13968047 0.045790773 -0.18944275 -0.03900618 -0.030765628
00000000: 03e7 e73c a952 403e 6608 0fbe 1b8f 3b3d
00000010: 48fd 41be f2c4 1fbd 3308 fcbc
